data.pth (torch, 5343 bytes, 6 tensors)

l1.weight f4 [8, 53]
0.14355189 0.5751352 0.09435408 0.62733734 -0.021004317 0.062010486 -0.39247856 0.18717165
-0.27440605 -1.09538 0.20376955 0.3057144 0.47294337 0.48930025 -0.15693858 -0.42257518
0.04913267 -0.4422952 0.68930304 0.32646897 -0.418612 -0.44233122 -0.5386847 0.3824005
0.030721404 0.24945436 0.5487618 0.204045 -0.2739146 0.38779935 0.03520058 0.35540253
0.34882942 -0.047734447 0.60621965 -0.596031 0.59106755 0.5443384 -0.21569559 0.034818288
0.40041047 0.07112908 0.4579329 0.15578194 0.5172932 0.029500103 0.29627874 -0.6027883
0.6345315 0.76775885 0.1502538 0.007983424 0.52364004 0.75483346 0.05294151 0.108010784
-0.29899547 0.033093933 0.13372411 0.8808828 -0.01773507 0.476405 1.0485574 -0.31027228
0.12935123 -0.31591675 -0.13337137 0.41788325 0.9229625 0.072417274 0.5639674 -0.0057230876
-0.19488505 0.57042557 0.5947857 0.17931159 0.12764315 -0.06201944 0.052220847 -0.13268639
-0.07079394 0.67214626 0.11495622 0.07911646 -0.08214437 0.05298081 -0.08177389 -0.29397464
0.5694705 -0.1474137 -0.8325789 0.7270549 -0.051770166 -0.29228806 0.08452104 0.14741398
0.17003077 0.07027164 -0.0401867 -0.031459976 0.61924815 0.05033367 -0.588361 0.047450848
0.15037203 -0.4329871 0.31197906 0.16190474 0.1188493 -1.272286 0.24468963 0.9787687
-0.506714 0.20269065 0.4816992 -0.8167902 0.40941903 -0.031339377 -0.114217505 0.4580622
0.5095387 -0.5064777 0.33092344 0.48115486 -0.23203495 0.019493083 0.41993365 0.39725742
0.44725588 0.025544552 0.058630932 0.32207498 0.6499922 0.43360513 -0.29990628 0.026951792
-0.07253984 0.29895464 -0.08363472 -0.0898826 0.25323454 0.4979316 0.23603256 1.1809859
-0.30118895 0.03084203 0.420368 -0.1461727 0.34872717 -0.62383884 -0.5852662 0.2742843
0.34568548 0.4902284 0.51618814 0.13808085 0.032269888 0.0967233 0.37216157 0.38400927
0.28402963 0.19624326 -0.8089852 0.03634571 -0.03439869 0.1798081 0.08445665 -0.07115786
-0.80828905 0.20605645 0.22703496 0.21778911 -0.2578417 -0.11495088 0.3859678 -0.048043218
-0.2530523 0.7914267 0.2348179 -0.38900018 -0.21895477 -0.4653834 0.11717249 -0.0013732493
0.0031205676 -0.7660529 -0.25673282 0.10554661 0.52536577 0.09464882 0.1487858 0.30068314
0.12467632 0.2803558 -0.35548657 0.41521713 0.70478636 0.19022794 0.0377552 -0.22491358
0.024406612 -0.08849777 0.94397736 0.6979722 0.20269687 0.25537068 -0.27831256 0.3840372
0.32824126 -0.0010213811 0.08672379 0.62788206 -0.25598827 0.43099347 0.22604454 1.3968747
0.05505198 0.19870089 0.5489188 0.10125327 -0.22344801 1.0770445 0.31187552 0.23825161
0.2074757 0.60169846 0.0022219103 0.5302119 0.4179403 -0.37180626 0.07343912 0.1840731
-0.37564722 -0.38659248 0.07969168 0.37507084 0.27621996 0.47575602 0.4705933 0.4404119
0.16654569 -0.19819897 0.12751034 0.5894776 0.33687618 0.08988527 0.18147762 -0.38209814
0.4017588 -1.2432932 0.062454697 0.08992092 0.47753334 0.051607713 0.5315116 -0.43112028
00000000: 44ff 123e 0f3c 133f b63c c13d 2e99 203f
00000010: 3f11 acbc b5fe 7d3d f3f2 c8be eda9 3f3e
00000020: f37e 8cbe 6935 8cbf f7a8 503e 9986 9c3e
00000030: a225 f23e 9085 fa3e 82b4 20be c65b d8be
00000040: 573f 493d 8474 e2be 2a76 303f f126 a73e
00000050: 5054 d6be 3d79 e2be 3ee7 09bf 00ca c33e
00000060: 74ab fb3c f770 7f3e a77b 0c3f 2cf1 503e
00000070: 893e 8cbe a38d c63e 7c2e 103d 52f7 b53e
00000080: c599 b23e 3285 43bd 3631 1b3f 7d95 18bf
00000090: 3450 173f c359 0b3f 4edf 5cbe 9f9d 0e3d
000000a0: 9a02 cd3e 20ac 913d 2e76 ea3e 4d85 1f3e
000000b0: 546d 043f 33aa f13c d9b1 973e 5650 1abf
000000c0: a870 223f d88b 443f 22dc 193e e8cc 023c
000000d0: 460d 063f c43c 413f 32d9 583d c234 dd3d
000000e0: ef15 99be 818d 073d f9ee 083e 8981 613f
000000f0: 2349 91bc 5beb f33e 2137 863f 02dc 9ebe
00000100: a674 043e d7bf a1be 8192 08be cbf4 d53e
00000110: 4547 6c3f 824f 943d 2b60 103f bd88 bbbb
00000120: f28f 47be 6907 123f e043 183f 759d 373e
00000130: e3b4 023e 1908 7ebd 87e5 553d f1de 07be
00000140: 6afc 90bd c711 2c3f 2b6e eb3d d007 a23d
00000150: 4f3b a8bd 6802 593d 1279 a7bd d883 96be
00000160: d2c8 113f 9ef3 16be e423 55bf 4520 3a3f
00000170: f40c 54bd c8a6 95be 5e19 ad3d b1f3 163e
00000180: 8c1c 2e3e 94ea 8f3d cf9a 24bd 2ddc 00bd
00000190: 0c87 1e3f ae2a 4e3d d49e 16bf d25b 423d
000001a0: 20fb 193e 7cb0 ddbe b8bb 9f3e 5bca 253e
000001b0: 4367 f33d 45da a2bf eb8f 7a3e 9690 7a3f
000001c0: 02b8 01bf 238e 4f3e 47a1 f63e 2a19 51bf
000001d0: 5f9f d13e b85d 00bd deea e9bd 2187 ea3e
000001e0: 2171 023f 86a8 01bf cc6e a93e ee59 f63e
000001f0: 929a 6dbe f5af 9f3c 8b01 d73e 5365 cb3e
00000200: b9fe e43e cf42 d13c fd26 703d 03e7 a43e
00000210: e465 263f 7e01 de3e 518d 99be 01ca dc3c
00000220: c58f 94bd 9510 993e ae48 abbd 5e14 b8bd
00000230: f5a7 813e e4f0 fe3e 85b2 713e 8c2a 973f
00000240: 7035 9abe 6da8 fc3c 793a d73e 4cae 15be
00000250: 5e8c b23e e7b3 1fbf 01d4 15bf fe6e 8c3e
00000260: b0fd b03e 38ff fa3e e824 043f 1165 0d3e
00000270: 6e2d 043d de16 c63d f68b be3e dd9c c43e
00000280: 556c 913e fef3 483e a719 4fbf 3ddf 143d
00000290: a4e5 0cbd 9d1f 383e 9cf7 ac3d 36bb 91bd
000002a0: 08ec 4ebf 7600 533e da7b 683e 1c04 5f3e
000002b0: d403 84be 5e6b ebbd 929d c53e f7c8 44bd
000002c0: 1290 81be f19a 4a3f 1b74 703e 082b c7be
000002d0: ae35 60be bc46 eebe 21f8 ef3d 9afe b3ba
000002e0: 7082 4c3b 0b1c 44bf 7c72 83be d228 d83d
000002f0: 5f7e 063f 3ed7 c13d 4e5b 183e 24f3 993e
00000300: 4c56 ff3d cc8a 8f3e 5602 b6be 5797 d43e
00000310: e16c 343f 1dcb 423e 32a5 1a3d bf4f 66be
00000320: 60f0 c73c 523e b5bd 80a8 713f 4eae 323f
00000330: c58f 4f3e f2bf 823e fc7e 8ebe 86a0 c43e
00000340: 3d0f a83e dddf 85ba 3e9c b13d e1bc 203f
00000350: e510 83be 2dab dc3e 3878 673e cacc b23f
00000360: 2f7e 613d 3f78 4b3e f185 0c3f e05d cf3d
00000370: 8ecf 64be 98dc 893f 26ae 9f3e 3bf8 733e
00000380: 8374 543e e908 1a3f 789d 113b f8bb 073f
00000390: 45fc d53e 645d bebe 4067 963d a97d 3c3e
000003a0: d554 c0be 73ef c5be 6435 a33d 4909 c03e
000003b0: b46c 8d3e 4b96 f33e 9bf1 f03e ab7d e13e
000003c0: f48a 2a3e acf4 4abe 1292 023e 01e8 163f
000003d0: 097b ac3e c515 b83d 45d5 393e 5ea2 c3be
000003e0: 54b3 cd3e 3b24 9fbf 7fd0 7f3d 7628 b83d
000003f0: 407f f43e 9c62 533d 2511 083f ccbb dcbe

l1.bias f4 [8]
0.44227508 0.6530379 0.5041047 0.4218186 0.56746763 0.6748207 0.34995443 0.6784078
00000000: e171 e23e 7e2d 273f 010d 013f 9cf8 d73e
00000010: 8f45 113f 0dc1 2c3f 3a2d b33e 22ac 2d3f

l2.weight f4 [8, 8]
-0.24536437 0.11849671 -0.25539643 -0.20573752 0.14945243 -0.16181137 -0.36481103 -0.05171435
-1.0828496 1.3491968 0.32824758 -0.80428135 0.5368229 0.8044481 -0.45773602 -0.00022913306
-0.18399654 0.6692273 0.049765438 -1.0735391 0.58342785 -0.05848402 -0.8242911 0.7155837
0.84643203 -0.03780839 -0.15029304 -0.49304664 1.4923453 -0.83801174 0.1715488 0.58309126
0.98695815 -0.30572954 1.7428583 0.6382922 -1.072573 1.6687531 -0.7947827 1.5724365
0.83278954 1.205543 -0.67308575 1.3386526 0.6228801 0.123106636 1.1774241 -0.81176853
-0.35942453 1.0545962 -0.025382075 -0.68491346 0.6176858 0.21763702 -0.5590152 0.21697694
0.015152925 0.20515217 0.23839517 -0.3695983 0.15419374 -0.049968928 -0.85933226 0.7062324
00000000: cc40 7bbe 67ae f23d 52c3 82be dbac 52be
00000010: 0f0a 193e e1b1 25be 83c8 babe 6dd2 53bd
00000020: d19a 8abf 7bb2 ac3f 1110 a83e 62e5 4dbf
00000030: 3a6d 093f 50f0 4d3f 605c eabe 7043 70b9
00000040: 9769 3cbe 7b52 2b3f d8d6 4b3d bb69 89bf
00000050: 875b 153f f18c 6fbd be04 53bf 7e30 373f
00000060: c5af 583f f8dc 1abd 6be6 19be 9c70 fcbe
00000070: 2c05 bf3f f087 56bf 7daa 2f3e 7845 153f
00000080: 4aa9 7c3f 9588 9cbe fb15 df3f 1e67 233f
00000090: 124a 89bf b499 d53f e176 4bbf 9945 c93f
000000a0: b231 553f 3c4f 9a3f 594f 2cbf f858 ab3f
000000b0: 1275 1f3f 551f fc3d d5b5 963f 10d0 4fbf
000000c0: 7e06 b8be 02fd 863f 12ee cfbc 7d56 2fbf
000000d0: a820 1e3f 3ddc 5e3e 9f1b 0fbf 342f 5e3e
000000e0: f943 783c 6913 523e dd1d 743e fd3b bdbe
000000f0: f7e4 1d3e 38ac 4cbd 33fd 5bbf a6cb 343f

l2.bias f4 [8]
-0.41209728 0.7078213 -0.18826051 0.24803989 0.54910856 0.68732435 0.03761883 -0.424413
00000000: 6afe d2be c733 353f 5dc7 40be 2bfe 7d3e
00000010: 6192 0c3f 7df4 2f3f 3416 1a3d a94c d9be

l3.weight f4 [8, 8]
0.23725775 -0.2746417 -1.262069 0.5116675 0.36580902 -0.32783374 -1.3515317 -1.219491
0.25660405 -0.445572 -0.020375162 1.2778505 -1.4351823 -0.53272706 -0.4243584 -2.1520314
-0.24262114 0.55782175 0.9111523 0.1500347 -1.5188973 -1.3185356 0.47827798 0.6204508
-0.19267987 -0.998936 0.5541289 0.26707467 -0.1459647 -1.6817877 -0.45072088 0.9811671
0.053413298 0.6812982 -1.6308725 -0.46006683 -1.6137646 0.4897224 0.26042086 -2.3219073
-0.27452353 0.86847645 0.40993702 -1.3854853 0.32882062 -0.7037199 -0.14240016 -0.36396196
-0.25717187 -1.178763 -0.90358967 -0.9586621 0.82807237 -1.9608834 -2.1033242 1.0518157
-0.32808962 -1.3966129 -1.7925501 -1.9014014 0.3443616 0.74165046 -1.922615 -3.1397176
00000000: b2f3 723e d69d 8cbe 7a8b a1bf a4fc 023f
00000010: 524b bb3e d3d9 a7be fefe acbf 4818 9cbf
00000020: 9b61 833e 0322 e4be d0e9 a6bc 9b90 a33f
00000030: 0eb4 b7bf cd60 08bf 8145 d9be e2ba 09c0
00000040: ad71 78be 68cd 0e3f 4741 693f b2a2 193e
00000050: 3a6b c2bf c6c5 a8bf dae0 f43e ddd5 1e3f
00000060: df4d 45be 45ba 7fbf 64db 0d3f 03be 883e
00000070: c577 15be d244 d7bf e3c4 e6be c42d 7b3f
00000080: e7c7 5a3d 8f69 2e3f 6ec0 d0bf e18d ebbe
00000090: d78f cebf e5bc fa3e e255 853e 219a 14c0
000000a0: 598e 8cbe 7954 5e3f 44e3 d13e 9557 b1bf
000000b0: 2d5b a83e fd26 34bf 59d1 11be 3959 babe
000000c0: 08ac 83be b5e1 96bf a751 67bf e16a 75bf
000000d0: 8dfc 533f 3afe fabf dd9c 06c0 e6a1 863f
000000e0: 5dfb a7be 36c4 b2bf 4872 e5bf 1f61 f3bf
000000f0: 2a50 b03e cedc 3d3f 4018 f6bf 22f1 48c0

l3.bias f4 [8]
-0.012159641 0.07107254 -0.24459372 -0.69350946 0.44524437 0.08543839 -0.2627375 0.11634698
00000000: 3b39 47bc 7b8e 913d c776 7abe d689 31bf
00000010: 12f7 e33e 53fa ae3d 8885 86be 5347 ee3d
