data.pth (torch, 6623 bytes, 6 tensors)

l1.weight f4 [8, 78]
0	0xbe62e577	-0.22157846
1	0x3d63f213	0.05565078
2	0x3f1dd71c	0.61656356
3	0x3f419d43	0.7563059
4	0xbeb287b7	-0.34869167
5	0x3e090076	0.13379082
6	0x3f45ec68	0.7731385
7	0x3e324d0a	0.174122
8	0x3dbd6cfa	0.09249301
9	0x3cca3cfa	0.024687279
10	0xbf6567c7	-0.89611477
11	0x3ebd7ef8	0.37010932
12	0xbef68b58	-0.48153186
13	0x3e58924e	0.21149561
14	0xbd98604a	-0.07440241
15	0xbdfdc470	-0.12390983
16	0xbe2683e3	-0.16261248
17	0x3f4887b8	0.7833209
18	0xbda8b4fa	-0.082376435
19	0x3f83e03c	1.0302806
20	0x3e7d117a	0.24713698
21	0x3f52aff2	0.8229972
22	0x3f866504	1.0499578
23	0xbd0fce49	-0.03510884
24	0x3f2ea24e	0.6821641
25	0xbded9efe	-0.11602591
26	0xbed79a08	-0.42109704
27	0xbe07d457	-0.13264595
28	0x3ee5abdf	0.4485769
29	0xbead37a9	-0.33831528
30	0x3f1bb6dd	0.608259
31	0x3ebf7049	0.37390354
32	0xbe45692d	-0.19278403
33	0xbe82e3b4	-0.2556435
34	0xbe56afbf	-0.2096548
35	0xbd5b03cf	-0.05347043
36	0x3eb0fd01	0.34568027
37	0xbe82c75a	-0.25542718
38	0xbe81e640	-0.2537098
39	0x3f2ca238	0.67435026
40	0xbcb43184	-0.021996267
41	0xbe31ffc2	-0.1738272
42	0xbd995dcf	-0.07488596
43	0x3e4c754e	0.19966623
44	0x3e894386	0.2680933
45	0xbd4fc2b0	-0.050722778
46	0x3d80998f	0.06279289
47	0x3f4f193c	0.8089788
48	0xbe89141c	-0.26773155
49	0xbe80fc01	-0.25192264
50	0x3f468c17	0.7755751
51	0xbe4fe858	-0.20303476
52	0x3e60207a	0.21887389
53	0x3e12db9b	0.14341585
54	0x3e95b459	0.29239157
55	0xbd35ac69	-0.044353876
56	0x3f09dcbd	0.53852445
57	0xbd84b054	-0.064789444
58	0x3f8b40f8	1.0879202
59	0xbdf4866f	-0.11939704
60	0xbe50b6c1	-0.20382215
61	0xbdfb52d0	-0.122716546
62	0x3c8e4b36	0.017369848
63	0x3f1e45b3	0.618251
64	0x3d9a0ec4	0.075223476
65	0xbe80417a	-0.25049955
66	0x3eae5e92	0.34056526
67	0xbdb7c770	-0.089735866
68	0xbf17b33b	-0.5925786
69	0xbf63dc2b	-0.89007825
70	0xbcfe4312	-0.031037841
71	0x3d868693	0.06568637
72	0xbe265e60	-0.16246939
73	0x3d3a3cb1	0.045468036
74	0xbe03a4c5	-0.12855823
75	0x3ee36d85	0.44419494
76	0x3f230481	0.6367875
77	0x3e5b6456	0.21424994
78	0xbe8fea2e	-0.28108352
79	0x3cee82da	0.02911513
80	0x3e8bf188	0.2733271
81	0x3f187322	0.5955068
82	0x3ee60f48	0.44933534
83	0xbe6414c1	-0.22273542
84	0x3e8b5ac5	0.2721769
85	0x3db8662d	0.090038635
86	0x3eabc25a	0.33546716
87	0x3def1366	0.11673622
88	0xbf71094a	-0.941548
89	0x3e86a823	0.26300153
90	0x3e3a1af2	0.18174341
91	0xbd6db3dc	-0.058032855
92	0x3efe7ca7	0.49704477
93	0x3ee9f840	0.45697212
94	0x3f0830ac	0.5319927
95	0x3ce17b58	0.027524635
96	0x3ef55ce4	0.47922432
97	0x3f7bf790	0.98424625
98	0x3ece87e3	0.40338048
99	0xbc7e442e	-0.015519185
100	0x3eb782bf	0.3584194
101	0x3f14ee2e	0.58175933
102	0xbd6e41bb	-0.058168154
103	0x3e635ff2	0.22204569
104	0x3d2a3bee	0.04156106
105	0x3da4000c	0.080078214
106	0x3e9ee170	0.3103137
107	0xbd107a35	-0.035272796
108	0x3d57c699	0.05267963
109	0x3ecd5a9c	0.40108192
110	0xbe9ddabd	-0.30830947
111	0xbe9f18b4	-0.31073534
112	0xbe89cddf	-0.2691488
113	0x3d7f637b	0.06235073
114	0xbe847d1b	-0.25876698
115	0x3e7bc22a	0.24585786
116	0x3e246187	0.16052829
117	0x3e00d8ed	0.1258275
118	0x3e58a072	0.21154955
119	0xbf74de06	-0.9565128
120	0x3ee50a6f	0.44734523
121	0xbe1f9aee	-0.15586445
122	0xbcf54801	-0.02994156
123	0x3edfeff8	0.4373777
124	0x3d23d3a0	0.039996743
125	0xbf239c66	-0.6391052
126	0x3f21c416	0.6318983
127	0x3ef99e41	0.4875355
128	0x3e8b6158	0.27222705
129	0xbf19c854	-0.600713
130	0x3e81b1b1	0.2533088
131	0x3ea981a7	0.3310673
132	0x3e8a2353	0.26980075
133	0x3dd89da0	0.105769396
134	0x3c515b6c	0.012778144
135	0xbdb4a7ec	-0.08821091
136	0x3f2610c4	0.6486933
137	0xbdaee2b3	-0.08539333
138	0xbea09d30	-0.31369925
139	0xbf11e57f	-0.5699081
140	0x3e7a5340	0.2444582
141	0x3f1c2823	0.60998744
142	0x3e9e4bce	0.3091721
143	0xbeabae8e	-0.33531612
144	0x3de0cbda	0.109763816
145	0x3ebd54d2	0.36978775
146	0x3ddb2afc	0.10701558
147	0x3f830b13	1.0237755
148	0xbe047463	-0.12935023
149	0xbc760b29	-0.015017309
150	0xbd2ba96f	-0.04190963
151	0x3e2c00fa	0.16797248
152	0x3f0e0dfc	0.5549009
153	0x3e03b250	0.1286099
154	0x3e9abbf8	0.30221534
155	0x3ef24072	0.47314793
156	0xbe693916	-0.22775683
157	0x3c6a86b6	0.014314344
158	0x3f4e30fb	0.8054349
159	0x3f3176bd	0.69321805
160	0x3ee828e4	0.45343697
161	0x3e8645db	0.2622517
162	0xbe0aaf1a	-0.13543358
163	0xbd9181af	-0.07104813
164	0xbef156ae	-0.47136444
165	0xbe1e7408	-0.1547395
166	0xbf23ad08	-0.639359
167	0x3dbe39c8	0.09288365
168	0x3f0e1048	0.55493593
169	0x3e9783e6	0.29592818
170	0x3ea0bca0	0.3139391
171	0x3f0a83b4	0.54107213
172	0x3ea8b63c	0.32951534
173	0x3f6c5424	0.9231589
174	0x3ee73d79	0.45164087
175	0x3f79de04	0.97604394
176	0xbe027927	-0.12741528
177	0x3f65daa1	0.89786726
178	0xbf5e8fec	-0.8693836
179	0x3ecfc67e	0.40581125
180	0x3e3a77f6	0.18209824
181	0x3e8476bd	0.2587184
182	0xbc50879f	-0.012727647
183	0x3d167954	0.0367368
184	0x3f24b225	0.64334327
185	0xbe82ccd2	-0.2554689
186	0x3ce099e8	0.027417138
187	0x3e9292a5	0.28627506
188	0xbe5a613a	-0.21326151
189	0xbea5c135	-0.32373968
190	0xbe032f85	-0.12811096
191	0xbddc1635	-0.10746423
192	0x3e735d50	0.23766065
193	0x3e879602	0.26481634
194	0x3ea40891	0.32037786
195	0x3f1ba39e	0.60796535
196	0xbd985ac0	-0.07439184
197	0x3f5c87c7	0.8614468
198	0xbeec312f	-0.46131274
199	0xbeabd26e	-0.33558983
200	0x3e0c24b5	0.13685878
201	0x3e956e36	0.29185647
202	0xbeb3be41	-0.3510609
203	0x3f09d93b	0.5384709
204	0x3ee1f3ee	0.44131416
205	0x3f0b24aa	0.5435282
206	0x3ea79f6a	0.3273881
207	0xbf10e3c3	-0.56597537
208	0x3d925629	0.0714534
209	0xbefcce03	-0.49375924
210	0xbd27b095	-0.040939886
211	0x3d799fdf	0.06094348
212	0x3e3d95c7	0.18514167
213	0xbd56a3bb	-0.05240224
214	0x3f77c6e8	0.9678788
215	0x3ca8dba4	0.020612545
216	0xbe2b6ebb	-0.16741459
217	0xbf0fcf93	-0.5617611
218	0xbe2266c4	-0.15859514
219	0xbf01a789	-0.50646263
220	0xbeb8e079	-0.3610876
221	0xbe8168c2	-0.25275236
222	0x3d54b2f9	0.051928494
223	0x3eccdd23	0.40012464
224	0x3e0814e2	0.13289216
225	0x3ed09a2c	0.40742624
226	0x3cf9677e	0.030444857
227	0xbdff783a	-0.12474103
228	0xbd71d64b	-0.059042256
229	0xbedc0ee2	-0.42980105
230	0x3eca4ea0	0.3951311
231	0x3efffb33	0.49996337
232	0x3ec08425	0.37600818
233	0x3ec4fa04	0.38471997
234	0xbea5bb87	-0.32369635
235	0x3eddcf43	0.4332219
236	0xbe8bfe67	-0.2734253
237	0xbe91f22c	-0.28505075
238	0xbe0915cf	-0.13387226
239	0xbe5f7fa0	-0.21826029
240	0x3f2963bb	0.661678
241	0x3e3ff4a2	0.18745664
242	0xbf1d0a95	-0.6134427
243	0x3e3f018b	0.18652932
244	0xbef66150	-0.4812112
245	0xbc14baad	-0.00907771
246	0x3f402147	0.7505078
247	0xbe61a758	-0.22036493
248	0x3e906ad3	0.282065
249	0x3ec5547c	0.3854102
250	0x3eab31b9	0.33436373
251	0xbe2e91b5	-0.1704777
252	0x3e81eff7	0.2537839
253	0xbf044932	-0.5167419
254	0xbeba3b0a	-0.36373168
255	0xbe77ac33	-0.24186783

l1.bias f4 [8]
0	0x3f68e511	0.9097453
1	0x3f27d47c	0.655586
2	0x3f8f5bc1	1.1199876
3	0x3f4a46e6	0.7901443
4	0x3f697294	0.9119046
5	0x3f74645c	0.95465636
6	0x3f34305e	0.703863
7	0x3f3050d7	0.6887335

l2.weight f4 [8, 8]
0	0x3f237cab	0.63862103
1	0xbf754085	-0.95801574
2	0xbfb68eae	-1.4262292
3	0x3ef1bee7	0.4721596
4	0x3fb33395	1.4000117
5	0x3f66af16	0.9011091
6	0x3db0235d	0.08600495
7	0x3feeb514	1.8649011
8	0xbf2f59c9	-0.68496376
9	0x3f3b2ee8	0.7311845
10	0x3ea74e1e	0.32676786
11	0x3fdeab23	1.7395977
12	0x3ea702fe	0.3261947
13	0x3e711c5c	0.23545974
14	0x3fa9993a	1.3249886
15	0xbf5dfd20	-0.86714363
16	0x3e8bab77	0.27279255
17	0x3d8748bf	0.06605672
18	0x3e4c715f	0.19965123
19	0xbec800b2	-0.3906303
20	0x3cff32c3	0.031152135
21	0x3dd21723	0.10258319
22	0xbf822943	-1.0168842
23	0x3f40f9f1	0.7538138
24	0x3f8f7fa3	1.1210827
25	0xbe671d97	-0.22569881
26	0x3fbb55f9	1.4635612
27	0x3ec370c9	0.38171986
28	0x3fb767d8	1.4328566
29	0xbf4a4100	-0.7900543
30	0xbc09a1c2	-0.0084003825
31	0xbf4af3c1	-0.7927819
32	0x3f988f38	1.1918707
33	0xbf5df144	-0.8669627
34	0x3f707e19	0.9394241
35	0xbe3a3a03	-0.18186192
36	0x3f5dfafe	0.8671111
37	0xbfbad64c	-1.4596648
38	0x3fd9590e	1.6980302
39	0x3e4e480a	0.20144668
40	0x3faead3e	1.3646619
41	0x3f95a553	1.1691078
42	0x3fce4f11	1.6117879
43	0xbf9fefbf	-1.249504
44	0x3e422225	0.18958338
45	0x3e6807e6	0.22659263
46	0xbfaa74bc	-1.3316875
47	0x3f78d1fd	0.97195417
48	0xbf825741	-1.0182878
49	0xbf338fc7	-0.7014126
50	0x3f025760	0.50914574
51	0xbddacac4	-0.10683206
52	0x3fcfa622	1.6222575
53	0x3f5c73b9	0.8611408
54	0x3ecc7211	0.39930776
55	0xbddf0b25	-0.108907975
56	0x3f425d15	0.7592328
57	0x3fcc11da	1.5942948
58	0x3d1150b9	0.035477374
59	0x3f8bc5a2	1.0919688
60	0xbf8aef76	-1.0854328
61	0x3f8e1e41	1.1102983
62	0x3e41307f	0.18866156
63	0x3fa561b0	1.2920437

l2.bias f4 [8]
0	0x3eea958b	0.45817217
1	0x3f3b6e10	0.7321482
2	0xbeb64bf5	-0.35604826
3	0x3f439f9b	0.76415414
4	0xbd3594f4	-0.044331506
5	0x3f2c1d2f	0.6723203
6	0x3f3ad4e9	0.72981125
7	0x3ea7d114	0.327767

l3.weight f4 [12, 8]
0	0xbf39551e	-0.72395504
1	0x3f6af477	0.91779274
2	0xbf50ffab	-0.8164012
3	0xbfe47d95	-1.7850825
4	0xbf70e583	-0.9410021
5	0xbf93f876	-1.1560199
6	0x3e99adbb	0.30015358
7	0x3f0af3f9	0.5427852
8	0x3eaa0ffd	0.33215323
9	0xbfe6ff91	-1.8046743
10	0x3f89a35e	1.0752981
11	0x3eee6298	0.46559596
12	0xbed5caf3	-0.417564
13	0x3edc55f0	0.43034315
14	0x3e8128b2	0.2522636
15	0xbf5dde7a	-0.866676
16	0x3ed0d981	0.40790942
17	0xbe15a84c	-0.14614981
18	0xbfbad74a	-1.4596951
19	0xbd53dee4	-0.051726237
20	0x3e7c8f16	0.24663958
21	0xbea4417a	-0.32081205
22	0xbf408f8c	-0.75219035
23	0x3dcbcbbd	0.09950969
24	0x3f5e6897	0.8687834
25	0x3dfdcb67	0.123923115
26	0xbec690a6	-0.38782233
27	0xbfbfef2a	-1.4994862
28	0xbfaf25f6	-1.368346
29	0xbf9ca1ff	-1.2236937
30	0x3f586b86	0.8453907
31	0xbe9bfadf	-0.30464837
32	0xbfc965b5	-1.5734164
33	0xbfe0feb0	-1.7577724
34	0x3f39c76a	0.72569907
35	0xbda51e25	-0.0806239
36	0xbf018f9d	-0.5060976
37	0x3f259aba	0.6468922
38	0xbf5efb6c	-0.8710239
39	0x3efb2966	0.49055022
40	0x3f2812ed	0.6565388
41	0xbe0bdc6d	-0.13658305
42	0xbfe99a67	-1.8250245
43	0xbfd4530f	-1.6587847
44	0xbfaba8f4	-1.3410935
45	0xbf4462f3	-0.76713485
46	0xbf555340	-0.83330154
47	0x3f368ec1	0.71311575
48	0xbe965f36	-0.29369515
49	0x3f74acc2	0.9557611
50	0xbf09b187	-0.5378651
51	0x3ec7f478	0.39053702
52	0xbe467430	-0.1938026
53	0xbff40988	-1.9065409
54	0x3dc51b48	0.09624344
55	0xbf202fe0	-0.6257305
56	0x3f2323b2	0.6372634
57	0xbddd2b5c	-0.10799286
58	0xbf8d4387	-1.1036233
59	0x3d8e2a87	0.06941705
60	0x3cf07629	0.029353218
61	0xbf73b47d	-0.9519728
62	0x3f2a9f08	0.6664891
63	0xbffd44bc	-1.9786601
64	0xbf6792e9	-0.9045854
65	0xbec5f19f	-0.38660905
66	0xbf84b085	-1.036637
67	0x3ec62355	0.3869883
68	0x3f28e86d	0.65979654
69	0xbdd816b2	-0.10551204
70	0x3ed49c12	0.41525322
71	0xbfe4d1ae	-1.7876489
72	0xbfa5dcec	-1.2958045
73	0xbf31a0a0	-0.6938572
74	0xbfcda937	-1.6067265
75	0x3ec29717	0.38005897
76	0x3edecf19	0.43517378
77	0x3f1f833a	0.6230961
78	0xbfa19de0	-1.2626305
79	0xbf3bf9a6	-0.7342781
80	0xbf27a2cf	-0.654828
81	0x3ed453f3	0.41470298
82	0xbfc145f2	-1.5099471
83	0x3eae1a3e	0.34004396
84	0xc003051b	-2.0471866
85	0x3e2324ae	0.15931961
86	0x3eae0c4c	0.33993757
87	0x3e12dc1f	0.14341782
88	0xb9ed2ea7	-0.0004523892
89	0xbf8c3d8d	-1.0956284
90	0x3f25af39	0.64720494
91	0xbfe18062	-1.7617304
92	0xbf9aa179	-1.2080528
93	0x3f36428e	0.71195304
94	0xbe3af486	-0.18257341
95	0x3f095809	0.53649956

l3.bias f4 [12]
0	0xbcdb22b9	-0.026749955
1	0xbe8ee5ef	-0.279098
2	0xbf0abcf2	-0.5419456
3	0xbdbb1401	-0.09134675
4	0xbe9cac17	-0.30600044
5	0x3e34dce6	0.17662391
6	0xbde1b436	-0.11020701
7	0x3ea59215	0.32338014
8	0xbeab9c01	-0.3351746
9	0x3d0d4083	0.03448535
10	0x3e7e6d27	0.24846326
11	0x3d41acc7	0.047283914
