data.pth (torch, 5343 bytes, 6 tensors)

l1.weight f4 [8, 54]
0	0xbd588312	-0.052859373
1	0x3f0b4193	0.54396933
2	0xbddeeb27	-0.108846955
3	0x3dee27ef	0.116287105
4	0x3f14dce9	0.5814958
5	0xbe098bdb	-0.13432257
6	0xbf165f7b	-0.5873944
7	0x3ea1442f	0.31497332
8	0xbe3dd0ab	-0.18536632
9	0x3c8e7fd5	0.01739494
10	0x3f005504	0.50129724
11	0x3f1e2b6e	0.6178502
12	0x3edfaf13	0.4368826
13	0x3ea9ece3	0.33188543
14	0xbe37fd72	-0.17967775
15	0x3edf1d36	0.43576974
16	0xbf166085	-0.5874103
17	0x3ed4281e	0.41436857
18	0x3d863de6	0.06554775
19	0x3e2e29a9	0.1700808
20	0xbd8ccb3b	-0.06874701
21	0xbeab44db	-0.3345097
22	0x3f0578f2	0.5213767
23	0xbcec192d	-0.028820598
24	0x3d15610f	0.036469515
25	0xbe7a4a2a	-0.24442354
26	0xbe7a64ad	-0.24452467
27	0x3e7ad75b	0.24496214
28	0x3d369de5	0.044584174
29	0x3da3e630	0.08002889
30	0x3ed5d720	0.4176569
31	0xbbd66fe4	-0.0065441
32	0x3a87dce7	0.0010365517
33	0x3f0f1124	0.5588553
34	0x3f31edc6	0.6950344
35	0x3ec31991	0.38105443
36	0x3ead3fd4	0.3383776
37	0x3ebdc021	0.37060645
38	0x3d8a20b0	0.06744516
39	0xbe60a298	-0.21937025
40	0xbe379074	-0.17926198
41	0x3dca1283	0.09866812
42	0x3ebb8397	0.36623833
43	0x3e9868d3	0.29767475
44	0x3e7d0977	0.24710642
45	0x3edbf2c2	0.42958647
46	0xbec9b9ef	-0.3939967
47	0xbd78724b	-0.060655873
48	0xbe00c3e9	-0.12574734
49	0x3adfc7a6	0.001707305
50	0x3d05e541	0.032689337
51	0x3e9e18cc	0.30878294
52	0x3eca6d3a	0.39536458
53	0x3f38e5e4	0.72225785
54	0xbdfe23a4	-0.12409142
55	0x3ef90844	0.4863912
56	0x3ba745a5	0.005104738
57	0x3d55cbb7	0.05219623
58	0xbf023320	-0.5085926
59	0xbdd6ff12	-0.104978696
60	0xbe932d10	-0.28745317
61	0xbe0c5745	-0.13705166
62	0x3f5a1d6c	0.85201144
63	0xbe6c10ef	-0.23053335
64	0x3eba0617	0.3633277
65	0x3e9eaede	0.30992788
66	0x3f01b6aa	0.5066935
67	0x3c8c8913	0.017155206
68	0x3ea5d284	0.32387173
69	0xbdb8e088	-0.09027201
70	0xbe9328e6	-0.2874214
71	0x3ee9f564	0.4569503
72	0x3f17dc17	0.59320205
73	0x3eddd021	0.43322852
74	0x3db3bad0	0.08775866
75	0xbdc7d9b4	-0.097583205
76	0xbe02154c	-0.12703437
77	0x3d50a22e	0.050935917
78	0xbe8090d0	-0.25110483
79	0x3f20f639	0.62875706
80	0x3f1c5404	0.610657
81	0xbc62ec42	-0.013850274
82	0xbe82d542	-0.25553328
83	0xbd83c584	-0.064341575
84	0x3eb57213	0.35438594
85	0xbf18de93	-0.5971462
86	0xbedd060b	-0.43168673
87	0x3f0c2cb7	0.5475573
88	0x3ed9ebca	0.42562705
89	0xbe7c93f3	-0.24665813
90	0xbb85f18c	-0.0040876325
91	0x3d0f543a	0.034992434
92	0xbcf35cd6	-0.029707354
93	0xbddda7cd	-0.10823021
94	0x3e03c599	0.12868346
95	0xbed0e1de	-0.40797323
96	0xbf00edf2	-0.50363076
97	0xbe846a60	-0.25862408
98	0xbe3cabb5	-0.18424876
99	0x3eaa1b26	0.33223838
100	0x3f37a478	0.71735334
101	0xbdd4aee9	-0.10384924
102	0x3d8df968	0.06932336
103	0x3ca5cf72	0.02024052
104	0xbe83d098	-0.25745082
105	0x3e97d381	0.29653552
106	0xbe1f58f3	-0.15561275
107	0x3cd3a4d0	0.025835425
108	0x3d0f2287	0.034945037
109	0x3dab6091	0.08368028
110	0x3f034243	0.5127298
111	0x3e4395ab	0.19100063
112	0x3f14bba4	0.58098817
113	0xbc4bf2a7	-0.01244799
114	0xbee6b938	-0.45063186
115	0x3e9eeae5	0.31038585
116	0x3ed7e54b	0.42167124
117	0x3f29812f	0.66212744
118	0xbeca1c96	-0.39474934
119	0xbdf52fcc	-0.11972007
120	0xbe484458	-0.19557321
121	0x3e077b3d	0.13230605
122	0xbeee5b05	-0.46553817
123	0x3e04b6a7	0.12960301
124	0xbf2402de	-0.64066875
125	0xbe927318	-0.28603435
126	0xbe66179a	-0.22469941
127	0xbe62c613	-0.22145872
128	0xbd98fa07	-0.07469564
129	0xbecf6b6a	-0.40511638
130	0x3e64cf8c	0.22344798
131	0xbcfd11d2	-0.030892286
132	0x3f0e2446	0.555241
133	0x3e86e075	0.26343122
134	0x3eacd3b1	0.33755258
135	0x3e5141f6	0.20435318
136	0x3e008be2	0.12553361
137	0x3f30280a	0.68811095
138	0xbe470b2b	-0.19437854
139	0x3e115444	0.14192301
140	0x3f81b021	1.0131875
141	0xbee7e48b	-0.45291552
142	0xbeed0872	-0.46295506
143	0x3e838b32	0.25692135
144	0x3e5e7112	0.2172282
145	0x3e8eb33f	0.2787113
146	0xbe2fd816	-0.17172274
147	0xbe6c1ad7	-0.23057114
148	0x3cdd71b0	0.02703175
149	0x3e5311a2	0.20612195
150	0x3ecbe10d	0.39820138
151	0x3e0993fa	0.13435355
152	0x3e743219	0.23847236
153	0xbe6d6327	-0.23182355
154	0x3ea9be7f	0.3315315
155	0xbe6d7d46	-0.2319232
156	0xbdf70768	-0.120619595
157	0x3cb8eefe	0.022574898
158	0x3e3044e6	0.17213783
159	0xbe27ab66	-0.16373977
160	0x3e718da0	0.23589182
161	0x3f3ba003	0.73291034
162	0x3e6c2047	0.23059188
163	0x3d8c19dd	0.068408705
164	0xbd9fa61d	-0.077953555
165	0x3e6cbdab	0.23119228
166	0xbc7fd94e	-0.015615774
167	0x3e8ee7bb	0.2791117
168	0x3f629dbd	0.8852194
169	0xbc494bfa	-0.012286181
170	0xbe301de4	-0.17198902
171	0xbe83759d	-0.2567567
172	0x3e98d831	0.2985244
173	0x3eee1cc6	0.46506327
174	0x3e30d7fb	0.1726989
175	0x3dca8288	0.09888178
176	0x3ec98738	0.39360976
177	0x3cb33e43	0.021880275
178	0xbeb0f21f	-0.34559724
179	0x3e5d2d60	0.2159934
180	0x3ecbc2c4	0.39797032
181	0x3e92bcf6	0.2865979
182	0x3e90eef3	0.28307304
183	0x3e82512d	0.25452557
184	0x3ed64ca1	0.41855338
185	0x3ddf5878	0.10905546
186	0xbe74d6cf	-0.23910068
187	0xbdbef731	-0.09324492
188	0xbda95c44	-0.082695514
189	0x3ec0d47d	0.37662116
190	0x3e67ab87	0.22624026
191	0xbd7bc1d8	-0.06146416
192	0x3e6e3134	0.23260957
193	0x3db4a9af	0.08821427
194	0xbeffbf65	-0.4995071
195	0x3e90bd79	0.28269556
196	0x3eabcebe	0.3355617
197	0xbe5eb14b	-0.2174732
198	0xbe75aa59	-0.23990764
199	0x3dde8b9f	0.10866474
200	0x3e456216	0.19275698
201	0xbab11c07	-0.0013512381
202	0x3d84eb87	0.06490236
203	0x3ee8eb61	0.4549208
204	0xbe51cc67	-0.2048813
205	0xbd18dab9	-0.037317965
206	0x3ed567d6	0.41680783
207	0x3eadf517	0.3397605
208	0xbea6621f	-0.32496735
209	0x3e4a6f25	0.19768961
210	0x3e4b85fc	0.1987533
211	0x3e3e1ca6	0.18565616
212	0x3ef235f0	0.47306776
213	0x3ea4ca28	0.32185483
214	0xbd69fc25	-0.05712523
215	0xbe74c4cc	-0.23903197
216	0x3e8d0612	0.27543694
217	0x3f2f183b	0.6839635
218	0xbe26d704	-0.1629296
219	0x3e3f9cfe	0.18712232
220	0xbe0fa8e9	-0.14029278
221	0x3dfae01e	0.12249778
222	0xbfaaf23c	-1.3355174
223	0x3e9d482f	0.30719134
224	0xbeedd6af	-0.46452853
225	0xbe9874ef	-0.29776713
226	0x3e650b73	0.22367649
227	0x3f0963a5	0.5366767
228	0x3e6b0bcd	0.2295372
229	0x3e0cc00f	0.1374514
230	0x3ee315df	0.44352624
231	0x3ed200e9	0.4101632
232	0x3f671400	0.9026489
233	0x3eee445b	0.46536526
234	0x3f1b5144	0.60670877
235	0x3ee1c2e8	0.44094014
236	0x3dcec961	0.10097004
237	0x3e9126da	0.28349954
238	0x3eea6176	0.45777482
239	0x3e335d4a	0.17516056
240	0xbe994496	-0.2993514
241	0xbe74046e	-0.23829815
242	0xbe565034	-0.20929033
243	0x3e8bda22	0.2731486
244	0x3e2f3ec7	0.17113791
245	0xbc831b89	-0.01600434
246	0x3ee3d42c	0.44497812
247	0xbc9e8757	-0.019351644
248	0xbf4b2f56	-0.79369104
249	0x3f35a543	0.70955294
250	0x3f1d7e68	0.61521006
251	0x3e071115	0.1319011
252	0x3e65817f	0.2241268
253	0x3eb3b558	0.35099292
254	0x3e5bbac0	0.21457958
255	0xbc214b0d	-0.009844554

l1.bias f4 [8]
0	0x3edc0ecc	0.4298004
1	0x3ef3dfaf	0.47631595
2	0x3f1845f2	0.5948173
3	0x3f12e7fb	0.57385224
4	0x3f42913e	0.7600287
5	0x3f0f7453	0.5603687
6	0x3f08b448	0.5340009
7	0x3f4b9b34	0.79533696

l2.weight f4 [8, 8]
0	0x3ca7f302	0.020501617
1	0xbde03e27	-0.109493546
2	0xbe1830d7	-0.14862381
3	0xbe92f3f6	-0.28701752
4	0xbe8a195f	-0.26972482
5	0x3e84980a	0.25897247
6	0x3ceb99b7	0.02875982
7	0xbe06cd6d	-0.13164301
8	0x3f88bfa4	1.0683484
9	0xbf6a4a2e	-0.9151944
10	0x3f928862	1.1447871
11	0xbf27ff2a	-0.65623724
12	0x3cda1715	0.026622334
13	0x3f06d3c2	0.52666867
14	0x3f65ef7f	0.8981857
15	0xbe5cb072	-0.21551684
16	0x3fa6440c	1.2989516
17	0x3fb2a824	1.3957562
18	0x3e92fc9a	0.28708345
19	0xbdecf2de	-0.11569761
20	0x3e910ba7	0.28329203
21	0x3f08c6b4	0.53428197
22	0x3fa9ee2e	1.3275812
23	0x3f5e323c	0.867954
24	0xbdcdb89d	-0.10044978
25	0x3face2b2	1.3506682
26	0xbf3d8757	-0.7403464
27	0x3f3e7f67	0.7441315
28	0xbecba761	-0.39776137
29	0x3f03fd95	0.5155881
30	0x3d46b620	0.04851353
31	0x3f6f6205	0.9350894
32	0xbeaea678	-0.3411138
33	0x3f4ec3d0	0.80767536
34	0xbf0e3466	-0.55548704
35	0x3fae4c16	1.361697
36	0x3faf2337	1.3682622
37	0xbec31b31	-0.38106683
38	0xbea900d8	-0.33008456
39	0x3f424191	0.75881296
40	0x3a65830a	0.0008755183
41	0xbf887f59	-1.0663863
42	0x3f3e30d6	0.7429327
43	0x3fa66690	1.300005
44	0xbf4bd9b5	-0.7962907
45	0x3f9738a1	1.1814157
46	0x3f1f4616	0.6221632
47	0xbf3f37c9	-0.74694496
48	0xbb833849	-0.0040045124
49	0x3f2f746b	0.68537015
50	0x3f96c3df	1.1778525
51	0xbf51ff89	-0.8203054
52	0xbf5dd2e8	-0.8664994
53	0xbe1b2654	-0.1515134
54	0xbe9ec4cd	-0.31009522
55	0x3f653b5c	0.895437
56	0xbc57877d	-0.0131548615
57	0x3f092e3e	0.53586185
58	0x3f92275b	1.141826
59	0xbf541b31	-0.8285399
60	0xbf987fb9	-1.1913978
61	0x3e84fd96	0.2597472
62	0xbeb6f9d3	-0.35737476
63	0x3f310a51	0.69156367

l2.bias f4 [8]
0	0xbe6517d1	-0.22372366
1	0x3d8eeee8	0.069791615
2	0xbf1631e8	-0.586699
3	0x3d30f749	0.04320458
4	0x3f800411	1.0001241
5	0x3e8ccbfa	0.27499372
6	0x3efa04a5	0.48831668
7	0x3f3d032f	0.7383298

l3.weight f4 [6, 8]
0	0x38ecea88	0.00011297042
1	0x3ee59077	0.4483678
2	0xbe5fc128	-0.21851027
3	0xbf6fc429	-0.9365869
4	0xbfb7ed05	-1.4369208
5	0x3ed1bb6d	0.40963307
6	0x3ea8af79	0.32946375
7	0x3f8bc429	1.0919238
8	0xbd0c0c61	-0.034191493
9	0xbf762bcc	-0.9616058
10	0xbf01e5c2	-0.5074121
11	0x3f32413f	0.6963081
12	0xbe5135f3	-0.20430736
13	0x3f8e1ae6	1.1101959
14	0xbf71b86b	-0.94422024
15	0xbf93e7bb	-1.1555094
16	0x3e3b1539	0.18269815
17	0xbf1da814	-0.6158459
18	0xbfce5d00	-1.6122131
19	0xbe69bf51	-0.22826888
20	0x3fa3268f	1.2746142
21	0xbf885ab5	-1.0652682
22	0xbf612fa2	-0.87963307
23	0xbf19965e	-0.5999507
24	0x3d8f0646	0.069836184
25	0xbf6e87fc	-0.93176246
26	0xbee2a2b9	-0.44264773
27	0x3e296049	0.16540636
28	0xbde84de7	-0.11342984
29	0xbf850cfd	-1.0394589
30	0x3f781f44	0.9692271
31	0x3f3b1822	0.730837
32	0xbe317833	-0.17331009
33	0xbf30e613	-0.69101065
34	0x3f532e3a	0.8249241
35	0x3f4da2b8	0.80326414
36	0x3db52d77	0.08846562
37	0xbf60f91a	-0.878801
38	0xbf955233	-1.166571
39	0xbfa883a9	-1.316518
40	0xbe25dc30	-0.16197276
41	0x3f3bb6f1	0.7332602
42	0x3f4cc2a3	0.7998449
43	0xbf9187f9	-1.136962
44	0xbf60b8e3	-0.87782115
45	0x3f058f1c	0.5217149
46	0xbfd32e27	-1.649846
47	0xbf525ddf	-0.82174486

l3.bias f4 [6]
0	0xbe622763	-0.22085337
1	0xbe521c33	-0.2051857
2	0x3f3721f8	0.7153621
3	0xbd82fdc6	-0.0639606
4	0xbe0ce6bb	-0.13759892
5	0xbe68e859	-0.22744884
